…
[2022-09-06 23:38:06,947 PID:19613 INFO base.py __init__] DoubleDQN:
- agent = <slm_lab.agent.Agent object at 0x7f4f3fdf8b00>
- action_pdtype = Argmax
- action_policy = <function epsilon_greedy at 0x7f4f407aa510>
- explore_var_spec = {'end_step': 10000,
 'end_val': 0.2,
 'name': 'linear_decay',
 'start_step': 1000,
 'start_val': 1.0}
- training_start_step = 32
- gamma = 0.99
- training_batch_iter = 8
- training_iter = 4
- training_frequency = 4
- to_train = 0
- explore_var_scheduler = <slm_lab.agent.algorithm.policy_util.VarScheduler object at 0x7f4f3958bf28>
- net = MLPNet(
  (model): Sequential(
    (0): Linear(in_features=2, out_features=32, bias=True)
    (1): SELU()
    (2): Linear(in_features=32, out_features=32, bias=True)
    (3): SELU()
  )
  (model_tail): Sequential(
    (0): Linear(in_features=32, out_features=3, bias=True)
  )
  (loss_fn): MSELoss()
)
- target_net = MLPNet(
  (model): Sequential(
    (0): Linear(in_features=2, out_features=32, bias=True)
    (1): SELU()
    (2): Linear(in_features=32, out_features=32, bias=True)
    (3): SELU()
  )
  (model_tail): Sequential(
    (0): Linear(in_features=32, out_features=3, bias=True)
  )
  (loss_fn): MSELoss()
)
- net_names = ['net', 'target_net']
- optim = Adam (
Parameter Group 0
    amsgrad: False
    betas: (0.9, 0.999)
    capturable: False
    eps: 1e-08
    foreach: None
    initial_lr: 0.02
    lr: 0.02
    maximize: False
    weight_decay: 0
)
- lr_scheduler = <torch.optim.lr_scheduler.StepLR object at 0x7f4f395475f8>
- global_net = None
- global_target_net = None
- online_net = MLPNet(
  (model): Sequential(
    (0): Linear(in_features=2, out_features=32, bias=True)
    (1): SELU()
    (2): Linear(in_features=32, out_features=32, bias=True)
    (3): SELU()
  )
  (model_tail): Sequential(
    (0): Linear(in_features=32, out_features=3, bias=True)
  )
  (loss_fn): MSELoss()
)
- eval_net = MLPNet(
  (model): Sequential(
    (0): Linear(in_features=2, out_features=32, bias=True)
    (1): SELU()
    (2): Linear(in_features=32, out_features=32, bias=True)
    (3): SELU()
  )
  (model_tail): Sequential(
    (0): Linear(in_features=32, out_features=3, bias=True)
  )
  (loss_fn): MSELoss()
)
[2022-09-06 23:38:06,949 PID:19613 INFO __init__.py __init__] Agent:
- spec = {'cuda_offset': 0,
 'distributed': False,
 'eval_frequency': 500,
 'experiment': 0,
 'experiment_ts': '2022_09_06_233802',
 'git_sha': '42d6ca131ee55b8cced67a0f5dc05b669beb85fe',
 'graph_prepath': 'data/ddqn_mtcar_2022_09_06_233802/graph/ddqn_mtcar_t0_s7',
…
